tflite_model/ei-stanly-lin-project-1-nn-classifier-tensorflow-lite-int8-quantized-model.lite (tflite, 3128 bytes, 3 tensors)

sequential/dense/MatMul i1 [20, 33] scale=0.0045651463 zero_point=0
-0.20999673 -0.22825731 -0.15978011 0.054781757 -0.013695439 0.100433215 -0.22825731 -0.17347556
-0.1780407 0.054781757 0.3652117 -0.091302924 -0.187171 0.3652117 0.16434526 0.3560814
0.19173615 -0.11412866 0.2647785 -0.1278241 0.3652117 -0.22369216 0.36977684 -0.2556482
-0.1278241 -0.14608468 -0.2465179 0.20086643 -0.08673778 -0.059346903 -0.14151953 -0.22369216
0.14151953 0.08673778 0.118693806 0.041086316 -0.054781757 0.11412866 0.33325568 0.25108305
0.29216936 -0.2556482 0.2556482 0.21456188 -0.09586807 -0.027390879 -0.22369216 -0.14608468
-0.091302924 -0.018260585 -0.19173615 0.5706433 0.118693806 -0.118693806 -0.091302924 -0.23282246
-0.14151953 0.13695438 -0.050216608 0.118693806 0.18260585 -0.14151953 0.031956024 0.2784739
0.33782083 -0.28303906 0.22369216 -0.08673778 -0.059346903 0.36064655 0.27390876 0.17347556
-0.07760749 0.100433215 -0.022825731 0.17347556 -0.14151953 0.1780407 -0.013695439 0.19173615
0.45651463 -0.009130293 0.050216608 0.187171 0.5797736 -0.109563515 0.38803744 0.1963013
-0.28303906 0.32869053 -0.2784739 0.3560814 0.26934364 0.059346903 0.187171 -0.19173615
-0.21912703 0.06847719 -0.47477522 -0.3926026 -0.15521498 -0.32869053 0.08217263 0.022825731
0.03652117 -0.2876042 -0.009130293 0.0 0.21912703 -0.06391205 -0.34238598 -0.009130293
0.09586807 -0.03652117 -0.23282246 -0.13695438 -0.11412866 0.29216936 0.19173615 -0.34238598
-0.26021335 0.26934364 -0.091302924 -0.109563515 0.23282246 -0.031956024 -0.14608468 0.21456188
0.0045651463 -0.06391205 0.18260585 -0.045651462 -0.018260585 0.16891041 -0.22369216 0.187171
0.07760749 0.26934364 -0.28303906 -0.14608468 0.041086316 0.08673778 0.07760749 -0.018260585
-0.050216608 -0.100433215 -0.3058648 -0.03652117 -0.16891041 -0.15521498 0.050216608 0.027390879
0.018260585 -0.16434526 -0.15064983 0.050216608 -0.059346903 -0.1780407 0.2647785 0.11412866
0.2876042 -0.022825731 0.0 -0.1963013 -0.187171 0.2967345 -0.15064983 0.059346903
0.08673778 0.13238925 0.24195275 0.20543158 0.28303906 0.16891041 -0.2967345 -0.06391205
-0.03652117 0.40173286 0.013695439 0.38803744 0.20543158 -0.09586807 0.21912703 0.36064655
0.45194948 0.0045651463 -0.15064983 -0.13695438 -0.050216608 -0.31499508 0.19173615 0.20543158
0.022825731 0.30129966 0.19173615 0.28303906 0.187171 -0.13695438 -0.29216936 0.2556482
-0.08673778 -0.15521498 -0.16891041 0.059346903 0.059346903 -0.11412866 -0.19173615 0.13695438
-0.31499508 -0.29216936 -0.374342 -0.2784739 0.2465179 0.041086316 -0.100433215 0.1278241
0.059346903 -0.15064983 0.022825731 -0.07760749 0.2647785 -0.29216936 0.041086316 -0.027390879
-0.20086643 0.018260585 0.045651462 -0.1278241 0.11412866 -0.14151953 -0.25108305 -0.109563515
0.32412538 -0.22369216 -0.07760749 -0.27390876 0.3058648 0.050216608 -0.31042996 0.2647785
-0.26021335 0.20999673 -0.1780407 -0.24195275 -0.14608468 -0.18260585 -0.03652117 -0.0045651463
-0.2647785 0.018260585 -0.09586807 -0.104998365 -0.2647785 -0.31956023 -0.06391205 -0.054781757
00000000: d2ce dd0c fd16 ceda d90c 50ec d750 244e
00000010: 2ae7 3ae4 50cf 51c8 e4e0 ca2c edf3 e1cf
00000020: 1f13 1a09 f419 4937 40c8 382f ebfa cfe0
00000030: ecfc d67d 1ae6 eccd e11e f51a 28e1 073d
00000040: 4ac2 31ed f34f 3c26 ef16 fb26 e127 fd2a
00000050: 64fe 0b29 7fe8 552b c248 c34e 3b0d 29d6
00000060: d00f 98aa deb8 1205 08c1 fe00 30f2 b5fe
00000070: 15f8 cde2 e740 2ab5 c73b ece8 33f9 e02f
00000080: 01f2 28f6 fc25 cf29 113b c2e0 0913 11fc
00000090: f5ea bdf8 dbde 0b06 04dc df0b f3d9 3a19
000000a0: 3ffb 00d5 d741 df0d 131d 352d 3e25 bff2
000000b0: f858 0355 2deb 304f 6301 dfe2 f5bb 2a2d
000000c0: 0542 2a3e 29e2 c038 edde db0d 0de7 d61e
000000d0: bbc0 aec3 3609 ea1c 0ddf 05ef 3ac0 09fa
000000e0: d404 0ae4 19e1 c9e8 47cf efc4 430b bc3a
000000f0: c72e d9cb e0d8 f8ff c604 ebe9 c6ba f2f4

sequential/dense_1/MatMul i1 [10, 20] scale=0.0074489648 zero_point=0
-0.20112205 0.8864268 0.32775444 0.0 0.3798972 -0.20112205 -0.18622412 0.074489646
-0.45438686 -0.5065296 -0.16387722 -0.3798972 0.6108151 0.29795858 -0.119183436 -0.037244823
-0.38734618 -0.0074489648 -0.10428551 0.11173447 -0.28306067 0.059591718 -0.21601997 0.16387722
0.10428551 0.037244823 0.29795858 -0.18622412 -0.15642826 -0.31285653 0.06704068 -0.3352034
-0.10428551 -0.13408136 -0.32775444 -0.37244824 -0.17877516 0.28306067 0.20857102 -0.36499926
-0.36499926 0.22346894 -0.2532648 -0.24581584 0.26816273 -0.029795859 0.14897929 -0.18622412
0.34265238 0.26071376 -0.2532648 -0.23836687 0.037244823 -0.45438686 0.13408136 -0.14153033
-0.119183436 0.3798972 -0.3798972 -0.17132619 -0.3203055 -0.08193861 -0.24581584 -0.36499926
-0.08193861 0.15642826 0.2756117 0.32775444 0.35755032 -0.31285653 0.30540755 0.14153033
-0.0074489648 -0.30540755 -0.10428551 0.39479512 0.096836545 0.096836545 0.1266324 -0.3203055
0.0148979295 -0.11173447 -0.2756117 -0.21601997 -0.40969306 0.2905096 0.029795859 -0.022346895
-0.2309179 0.5884682 -0.022346895 -0.4469379 -0.22346894 0.15642826 -0.06704068 0.029795859
0.1266324 -0.34265238 0.5214275 0.08193861 0.14153033 0.35010135 -0.5065296 0.15642826
-0.31285653 -0.2532648 0.096836545 -0.096836545 0.38734618 -0.17132619 -0.47673374 0.4916317
-0.096836545 0.2309179 -0.21601997 0.2756117 -0.3203055 0.096836545 -0.28306067 0.37244824
0.2756117 -0.059591718 0.029795859 0.3203055 0.24581584 -0.19367309 0.037244823 0.20112205
0.17132619 0.43203995 -0.2309179 0.23836687 -0.19367309 -0.052142754 -0.029795859 -0.074489646
0.14897929 -0.10428551 0.17877516 -0.21601997 -0.3203055 0.9460185 -0.41714203 -0.3352034
-0.11173447 -0.20857102 -0.074489646 -0.35010135 0.3352034 0.55867237 0.23836687 0.43948892
0.17132619 -0.022346895 -0.096836545 -0.21601997 -0.21601997 0.16387722 -0.11173447 0.2309179
-0.3798972 0.029795859 0.14153033 0.20112205 0.3798972 -0.119183436 0.2309179 -0.40969306
-0.1266324 -0.2309179 0.14153033 0.26816273 0.62571305 0.38734618 -0.06704068 0.14897929
-0.35010135 0.37244824 0.037244823 -0.037244823 0.074489646 0.08193861 0.5214275 0.2756117
-0.26071376 0.5512234 0.26071376 -0.23836687 0.5065296 -0.24581584 -0.022346895 0.06704068
-0.38734618 -0.20112205 -0.35010135 0.21601997 0.39479512 0.34265238 -0.16387722 0.39479512
00000000: e577 2c00 33e5 e70a c3bc eacd 5228 f0fb
00000010: ccff f20f da08 e316 0e05 28e7 ebd6 09d3
00000020: f2ee d4ce e826 1ccf cf1e dedf 24fc 14e7
00000030: 2e23 dee0 05c3 12ed f033 cde9 d5f5 dfcf
00000040: f515 252c 30d6 2913 ffd7 f235 0d0d 11d5
00000050: 02f1 dbe3 c927 04fd e14f fdc4 e215 f704
00000060: 11d2 460b 132f bc15 d6de 0df3 34e9 c042
00000070: f31f e325 d50d da32 25f8 042b 21e6 051b
00000080: 173a e120 e6f9 fcf6 14f2 18e3 d57f c8d3
00000090: f1e4 f6d1 2d4b 203b 17fd f3e3 e316 f11f
000000a0: cd04 131b 33f0 1fc9 efe1 1324 5434 f714
000000b0: d132 05fb 0a0b 4625 dd4a 23e0 44df fd09
000000c0: cce5 d11d 352e ea35

sequential/y_pred/MatMul i1 [4, 10] scale=0.008723168 zero_point=0
0.07850851 -0.061062172 -0.04361584 0.26169503 -0.10467801 -0.35764986 -0.69785345 0.24424869
-0.16574019 -0.09595484 0.53211325 -0.061062172 0.49722055 0.28786454 0.09595484 0.09595484
0.36637303 -0.4623279 0.3227572 0.45360473 -1.1078423 -0.5757291 -0.39254254 0.38381937
0.31403404 0.42743522 0.2180792 0.04361584 0.33148038 -0.4623279 -1.038057 0.5408364
0.27914137 0.0 0.04361584 0.026169503 -0.052339006 -0.5844522 -0.5931754 0.7938083
00000000: 09f9 fb1e f4d7 b01c edf5 3df9 3921 0b0b
00000010: 2acb 2534 81be d32c 2431 1905 26cb 893e
00000020: 2000 0503 fabd bc5b
